checkpoint.pth (torch, 21847 bytes, 6 tensors)

fc1.weight f4 [64, 8]
00000000: 0930 2ebc ebc2 3fbf 2669 9bbf 070d 26bf
00000010: 8cc3 ee3e ee31 8ebd 2846 173e 9995 913e
00000020: 322d 62bd 0496 47be 783f 543e f3d7 ecbd
00000030: f1d9 cb3c 583a 08bf 408d 29be 2ce4 723f
00000040: f666 06be f2f0 9abd 93cd ae3e e94b 813f
00000050: ba93 573e 8951 0a3f c579 e73e 743f aa3e
00000060: 5307 8c3e cf10 6fbf 2246 e23f f7eb b13e
00000070: 21e0 57bf 2dfb 3e3e 16f9 d93d 2f3d a13e
00000080: ad9f 2fbd 2c1f c5be 5cc3 f5bf 8738 3dbf
00000090: c3fe 4f3e e62f 3f3e d307 873e 65ea 513e
000000a0: 12e8 ec3d 456a 203d 6b35 e73e b18c 2f3d
000000b0: 245d 1abf 824e c2bd f6c7 f03e f512 de3e
000000c0: dfcc 223e b131 32bf f8b1 b03e 6b72 f9bd
000000d0: c9f2 60bf 417c f4bd 9bd2 b13e ed1b 303d
000000e0: 3a64 663e 48af c3be 27c4 67be 7533 8fbe
000000f0: 7a0b 033f 84fa 64bc 65f9 fa3d 17d6 e63e
00000100: 55bc 193d 561b 09bc aa13 6e3d d9f4 1fbd
00000110: acbe 193f 3672 663f 50e4 1bbe c982 7bbf
00000120: 03e7 7ebd c483 183f 7691 323f c61e 583f
00000130: ab07 06bf dd57 cfbe a69a 7fbf 25d8 d53d
00000140: 4146 0bbf 668e 3a3f 5dd5 293e 17ed 71bf
00000150: 3968 b43d dc8d b5be 9689 47bc a278 523c
00000160: b17a 433e 73f3 c33d a945 8fbe 44d5 67be
00000170: 150c d23e e2a7 ea3e 0f6f 2e3e 0a21 42bf
00000180: f541 a9be f295 cd3d 4068 39bf 6383 8abd
00000190: e3bd 5f3f b3fb 003f 0c90 073f 891d 89be
000001a0: 6626 99bc 7497 3ebf 08e0 88bf 28e0 abbe
000001b0: ab5a 193f a044 c4bc af01 473e 036a a13e
000001c0: 959d 7abe e4a5 223f d247 593e 0fc5 3dbf
000001d0: 2ba2 5ebc 21e3 4bbe 2b6a 003e 6ccd ac3e
000001e0: 7f31 953d 5404 85bd 43c8 4abe e262 f0be
000001f0: 3ea4 2ebd 01cc abbe 7ca4 bbbf f275 2d3c
00000200: fdc6 21be 9e1d 9fbe 3e0c 34bf 2b05 33bf
00000210: 8428 aabe 80a9 84be 9360 d53e 8621 34ba
00000220: 2618 a4be dbd6 82bd ada2 583d 265b 9e3f
00000230: ad8f e83e 345d 0b3f 7b65 443f 57ba bfbe
00000240: dbba a9bb 3070 99be 9938 833d 0ef9 54be
00000250: 8726 2ebf 9db4 a7be 685f 49be f4de 6a3e
00000260: 417e a7bc f7d4 c63d 96b3 c53f 5f84 85bf
00000270: 9221 f13f ca49 20be 6c29 d63d d1d2 953d
00000280: 6374 293d b015 abbf 9b18 8dbf 7781 3dbf
00000290: ad15 f33e 32a8 a73d 2149 f33d c7f1 753e
000002a0: 40e8 1cbf 6f2d 68be d6a5 bf3e 661c 32be
000002b0: 807e 2d3f b441 be3e 79a8 e03d 01ac a33e
000002c0: cc77 9ebe 5ea2 d3be 6c33 8b3e dd51 34bf
000002d0: e0b9 b7be f0ef 51be 9fa5 ff3e 062d 123e
000002e0: bd3c ce3e 7447 273e 82cc 9f3e 21f3 1cbe
000002f0: 67f8 a0be 6c18 07bd 9f8b 253f e76c b03e
00000300: 8aef 3abf a1bd 82bf 3fa6 bdbf 48a4 f9be
00000310: d0aa 533e a5be 9d3e dff6 d63d 1a65 9a3d
00000320: 283d 873e 69d7 9abe 6640 c63d b964 1740
00000330: 3b37 fc3e b78b 443f 4809 023d e485 fc3e
00000340: e674 8abd 1e9f aebd 71eb 6e3f 7459 51bf
00000350: 1df5 08bf 35c3 e4be 4951 933c 54fb 233e
00000360: e36c 5d3d 8d42 82bf d55e f93e 0825 35bf
00000370: 8146 a53e ee68 0cbc 3a8f ad3e dda2 813c
00000380: 2afc 44bf bb52 5fbc 2871 ddbd cee8 febc
00000390: fe9c 16bf 907b 03be 89e0 5d3e c429 133f
000003a0: 90c4 34be 9c8b 0ebe bc7b 013f d64e dcbe
000003b0: 37e0 bc3e 319e e5be b14d 67bf 6151 c83e
000003c0: acbd 77bd f6c9 a43b 6924 81be 3cc6 2e3f
000003d0: 8c43 bcbe b54d 8abf 390e f43e 6dc2 343e
000003e0: e2bc c6bc 34b1 2c3e fcb9 19c0 968c b43e
000003f0: e830 e73e 84e4 44bd c5c9 b93b 2b0b 25bf
-0.01063157 -0.74906796 -1.2141464 -0.6486363 0.46633565 -0.06943117 0.14772856 0.28434446
-0.055218883 -0.1949082 0.20727336 -0.115646265 0.024884196 -0.53214025 -0.16557789 0.9487941
-0.13125214 -0.07565488 0.34141216 1.0101291 0.21052447 0.5403066 0.4521009 0.33251536
0.27349338 -0.9338502 1.7677653 0.3475034 -0.8432637 0.18650503 0.106432125 0.31491992
-0.042876888 -0.38500345 -1.9200244 -0.7391438 0.20312028 0.18670616 0.26373157 0.2049957
0.115677014 0.039163847 0.45157942 0.042858783 -0.6029837 -0.094876304 0.47027558 0.43373838
0.15898465 -0.69607073 0.3451078 -0.121800266 -0.8787046 -0.11937762 0.34730992 0.042995382
0.22499171 -0.38219666 -0.2263342 -0.27968946 0.51189387 -0.013975743 0.122545995 0.45085213
0.037533123 -0.008368334 0.05812422 -0.039051864 0.6005657 0.9001802 -0.15223813 -0.9824644
-0.06223203 0.5957606 0.69753206 0.84421957 -0.5235545 -0.40496722 -0.9984535 0.10441617
-0.54404074 0.7287353 0.16585298 -0.94502395 0.088089414 -0.35459793 -0.012178799 0.012846144
0.19089772 0.09567919 -0.27982834 -0.22639948 0.41024843 0.4583121 0.17034553 -0.75831664
-0.33058134 0.100383654 -0.724247 -0.06763341 0.8739912 0.5038406 0.52954173 -0.26780346
-0.018695068 -0.7444985 -1.0693369 -0.33569455 0.59903973 -0.023958504 0.19434236 0.31526193
-0.24474175 0.6353438 0.21218804 -0.7412881 -0.013588469 -0.19910862 0.125405 0.33750474
0.07284831 -0.06494966 -0.19802956 -0.46950442 -0.042637102 -0.3355408 -1.4659572 0.010587202
-0.15798564 -0.31077284 -0.7033118 -0.6992976 -0.33234036 -0.25910568 0.41675243 -0.00068714505
-0.32049674 -0.06388637 0.052889515 1.2371566 0.45422116 0.5443909 0.76717347 -0.37446854
-0.0051797456 -0.29968405 0.064072795 -0.20798132 -0.6802754 -0.32754984 -0.19665301 0.22936612
-0.020445945 0.097085886 1.544543 -1.0431021 1.883837 -0.15653148 0.10457119 0.07315601
0.04137076 -1.3365993 -1.1023134 -0.7402567 0.47477475 0.081863776 0.118791826 0.24018012
-0.61291885 -0.22673582 0.3743121 -0.17393646 0.6777115 0.37159503 0.109696336 0.31967166
-0.30950773 -0.41334814 0.2718767 -0.70437413 -0.35884 -0.20501685 0.49931046 0.14274988
0.40280715 0.16335851 0.31210715 -0.15327121 -0.31439516 -0.032982275 0.6466617 0.34458086
-0.7302176 -1.021412 -1.4816359 -0.4875815 0.20670629 0.30809513 0.10496306 0.07538815
0.26413846 -0.3024247 0.09680252 2.3655226 0.49260888 0.7677569 0.031747133 0.493209
-0.06760578 -0.08526443 0.93328005 -0.8177712 -0.53499013 -0.4468018 0.017983096 0.16013843
0.05405892 -1.017656 0.48705164 -0.7075963 0.32280353 -0.008569939 0.33898336 0.01582473
-0.7694727 -0.013630564 -0.108125985 -0.03111687 -0.588333 -0.12840104 0.21667685 0.57485604
-0.17653108 -0.13920444 0.5057943 -0.43028897 0.36889812 -0.44847253 -0.9035292 0.39124587
-0.06048362 0.0050289584 -0.2522309 0.6827123 -0.36770284 -1.0804964 0.476671 0.17652293
-0.024259988 0.16864473 -2.4019766 0.3526351 0.451545 -0.048069492 0.0056698048 -0.64470166

fc1.bias f4 [64]
00000000: 77bf debe ea6e 13be 3b32 c1be 04a1 c8be
00000010: c3cc f7be 1c2e 2fbe 2768 643e e632 26be
00000020: 1afe e6bb 5e81 a43e 4b31 083f 4fd7 ccbe
00000030: 8a48 9cbe 5bf3 03bf b3ab 163f 7f12 843e
00000040: 2ec2 6e3e ab29 c7be 1969 173f 0abb 123d
00000050: b087 b7be 2f91 5bbe 5963 85be 2500 b2be
00000060: 55a8 87be 5d4b e4be 46a1 44be 3a93 4d3d
00000070: a65f c5bd bb0b a8be 4792 b9be 030b 2abd
00000080: 4083 853d c643 fd3e d4b6 d0be 9184 68be
00000090: c585 c63e 39d5 06bd 97be abbe 1d04 003f
000000a0: 3f2b 8bbd 4a64 8cbe cb1c 653e 1918 923e
000000b0: 18ec 4f3e 7340 99be 8645 053d 6680 a63e
000000c0: 7930 3abd 4d52 e1be a573 8a3e 459a 093f
000000d0: c757 3cbe b682 ad3e d8f8 67be 4e3e 9fbd
000000e0: 17d7 cb3e 48de a53d da95 c13c f169 8a3c
000000f0: 5ceb 9ebd bc83 4cbe 8d7b bb3e 7283 0d3f
-0.4350545 -0.14397779 -0.37733635 -0.39185345 -0.48398408 -0.17107433 0.22305356 -0.16230354
-0.0070493342 0.3212995 0.53200215 -0.40008017 -0.30524093 -0.51543206 0.5885574 0.2579536
0.23316261 -0.38898978 0.5914474 0.035822906 -0.3584571 -0.21442102 -0.2605236 -0.34765735
-0.26495615 -0.44588748 -0.19202146 0.050189234 -0.09637384 -0.3282145 -0.36244413 -0.041514408
0.065191746 0.4946577 -0.40764487 -0.2270682 0.38773933 -0.03291819 -0.33543846 0.50006276
-0.06795358 -0.27420264 0.22374265 0.2853401 0.20304906 -0.29931983 0.032537006 0.32519835
-0.045456383 -0.44008103 0.27041355 0.5375102 -0.1839286 0.33888787 -0.2265352 -0.077755556
0.39812538 0.080990374 0.023631025 0.01689622 -0.07759735 -0.19972128 0.366177 0.55278695

fc2.weight f4 [64, 64]
00000000: e790 8fbd bbd4 36bd aab8 2a3e 2125 003f
00000010: 0a89 70be cc01 8d3d 3ec5 5d3e 1450 4c3e
00000020: 517d 3b3f bb0c 593f bfdc c5be 9ea1 713e
00000030: 6ee1 c6bd a701 8c3e 4757 4ebe 8bd8 05bf
00000040: ffac 82be a272 a03e 4669 b13e d725 6bbe
00000050: eb79 b9bd 11c1 053f 228e 603e d4b6 223e
00000060: 7160 c93e b36f 23be 387a c63e 50b1 2dbd
00000070: f35e 2f3e 9df1 20be 4f27 8d3d 2d43 253f
00000080: 5e89 0ebf dfb5 893d 9238 2abf 0e82 b2bc
00000090: 5da4 013f 2d57 253f 309d 353d 6b5a c83e
000000a0: 3221 033f 06c3 423e 74b3 593f 4115 3dbd
000000b0: 45b3 abbb c70c 07bd 1568 f93d 5574 063f
000000c0: 61f1 2c3f 12e3 8c3e 4414 76be cff0 22bf
000000d0: f3ce ccbd c095 673d 2066 d13e 2206 05bf
000000e0: 3e52 473c d439 5ebf 7730 0dbe bf3a cdbc
000000f0: 1b00 643e 239e 52be 570c 463d 07e3 0f3e
00000100: 9624 e5bd c845 a73d 3235 cd3e 2dc6 673f
00000110: 24b8 a3be 330a 203e c34e edbd 5922 623e
00000120: 48c1 893e f2fa 333f 0dd0 773e 2388 5f3e
00000130: 2025 9d3e f4cd ca3e fb9c bf3d 375f 23bd
00000140: 2bbc 3dbd aba4 233f 70b4 513e 8984 b0be
00000150: cb5b 533e 1773 123f c5c6 6d3e dcc6 413d
00000160: 5b47 fb3e c2c9 043f 9603 993e 2968 8abd
00000170: c1e4 853d 187b fcbb f618 40be dd6c 1fbf
00000180: 3754 3bbf 4638 083f f69e 95be 1208 bb3e
00000190: 404f b23e 3c97 d73e ca4f af3d 297e 93be
000001a0: 5ff7 1c3f 8ced 783e 0b1a 1a3f f903 293e
000001b0: d4bb 9f3e e505 bf3e 46a0 16be d552 ce3d
000001c0: 6c9f e8bd 3553 0a3f 054d dfbe 02a3 8dbc
000001d0: 631a a4be 9bbb 56bf eb94 493f 1d8d 49bf
000001e0: b045 1f3e 72ce fbbe 0f10 613d 7b82 b13e
000001f0: ac0f a63e 00f2 d03b cbc5 15bf 7460 e8bd
00000200: 88e0 853e 4c9e e53e 8d47 913d 34bc ba3f
00000210: e6a3 143f 49ba c43e 1559 673d 1cc1 e1bc
00000220: 9a9b e73d b339 d5bc ca30 343e a5d3 8f3e
00000230: 9901 913e c5f1 213f 5f93 1e3e 7e14 f03e
00000240: 1d24 c03e fa12 8b3e 692d 623e a83d 34bf
00000250: 9f59 323f 6385 5b3e 39db 233f 7b30 d13d
00000260: 2503 213f ecc7 6cbd d253 893f 2276 213e
00000270: 157f c13e ab43 b53e 993c 523e 0db1 0fbf
00000280: 1184 b2be 810f d33e 9c8d 353f 98dd a63e
00000290: b71e 393c f890 243f ccf7 ca3d 345f 7ebf
000002a0: 1c89 ce3d e972 a63e f383 d83e 96d0 12be
000002b0: fe44 e13e 3876 113f cd09 e23e 8661 a83b
000002c0: 17e1 85bf 3824 913f 002b d1bd b244 ab3d
000002d0: ab3e 173e b16a 09bf 7cbe 6e3f 4604 debe
000002e0: 5fbd d73d dff6 da3c aac4 4ebe 1431 3ebe
000002f0: 9ed6 4b3e 187f 483e acac d7be a9da 3c3e
00000300: 86e9 923e ce4e bd3e 6881 343d 4c73 0a3f
00000310: f2ac 3f3f 5152 883e 8d0c 613e bdfb 85bd
00000320: c868 323e 0294 8ebe 1b85 863e 2be2 6fbc
00000330: 2fe9 2f3e d2b4 013f 8a35 d33d 58da c13e
00000340: ceb2 b43e 6a79 a53e 4208 6a3e 120b 49bf
00000350: abbe 303f 39e2 e83d ad35 093f 32a4 313e
00000360: 5695 fa3e dbda d5bd 67d0 843f 0dbc fe3d
00000370: 7c45 933e 90df e53e 6dc5 cd3e fea3 d0bf
00000380: 6ecf 35bd 819d eb3e eda7 a33f 988a d23e
00000390: 8388 bcbe 1c1e 2b3f 0690 fe3d d20b a2bf
000003a0: 5233 79bd 8baf 2e3e c68d 023d 9c0c cebe
000003b0: b1f0 e33e a3f5 073f 58ed d33e 1b9f 86bd
000003c0: d3f6 9ebf 0e8a 433f e55c 183d a6c7 223d
000003d0: da30 e23e f005 45bf 976d 683f 1bb2 2ebe
000003e0: 1b0d 0b3e e965 7b3e 54da 44be 0617 2fbf
000003f0: 7738 f93d 4ab9 d43e dca9 28be 19c3 a03d
-0.0701006 -0.04463647 0.16672006 0.50056654 -0.23489776 0.06885108 0.21657273 0.19952422
0.7323809 0.8478505 -0.38644978 0.23596808 -0.09710966 0.2734501 -0.20150481 -0.52283543
-0.2552261 0.31337458 0.3465063 -0.22963654 -0.09056457 0.5224772 0.2192922 0.15890056
0.3933139 -0.15960579 0.3876512 -0.042405427 0.17126064 -0.15717168 0.06892263 0.6455563
-0.55678356 0.06724142 -0.6649257 -0.02179053 0.50641423 0.64586145 0.04433936 0.39131483
0.5122253 0.19019708 0.8503945 -0.046162847 -0.0052398765 -0.03297117 0.12178055 0.5252126
0.67555815 0.2751699 -0.24031168 -0.63648695 -0.1000041 0.056539297 0.40898228 -0.5196248
0.012165604 -0.8680699 -0.13788019 -0.025052426 0.22265665 -0.20568137 0.048351612 0.14051448
-0.11188619 0.081676066 0.40079647 0.9053677 -0.31976426 0.1562889 -0.11587288 0.22083415
0.26905274 0.7030479 0.24200459 0.21829276 0.30692387 0.39610255 0.093561135 -0.039885726
-0.04632203 0.6392314 0.20478988 -0.34476116 0.20640485 0.57206863 0.23220356 0.047308788
0.49077877 0.5187036 0.29885548 -0.06758148 0.06537772 -0.0077051036 -0.18759522 -0.6227549
-0.73175377 0.53210866 -0.2922284 0.36529595 0.34826088 0.4210757 0.085601404 -0.2880719
0.6131496 0.24309367 0.6019599 0.16505422 0.3119799 0.37309185 -0.14709577 0.10074393
-0.11358532 0.54033214 -0.4361345 -0.017289642 -0.3205138 -0.83880013 0.78742856 -0.78730947
0.15553927 -0.49180943 0.054946955 0.3466986 0.32433832 0.006376505 -0.58504933 -0.11346522
0.26147866 0.44847333 0.07093725 1.4588685 0.5806259 0.38423374 0.05648144 -0.027557902
0.113089755 -0.02602849 0.17596737 0.2809116 0.2832153 0.63259536 0.15485905 0.46890634
0.37527552 0.27162915 0.22087635 -0.7040658 0.69668 0.21437602 0.6400638 0.10214325
0.62895423 -0.057807848 1.0728705 0.1576772 0.37792268 0.3540319 0.20530929 -0.56129533
-0.34866384 0.41222766 0.70919204 0.32590938 0.011298827 0.64283705 0.09910545 -0.9936402
0.10084745 0.32509544 0.4228817 -0.14337382 0.4399795 0.5682101 0.44148102 0.005138579
-1.0459317 1.1339178 -0.1021328 0.08362712 0.1477 -0.53678423 0.93259406 -0.43362635
0.105341665 0.026729045 -0.20192209 -0.1857341 0.19906089 0.19579732 -0.42123926 0.18442787
0.2869379 0.36974186 0.044068724 0.5408218 0.7487327 0.26625302 0.21977444 -0.06542156
0.17422783 -0.27847296 0.26273426 -0.014641325 0.17178796 0.50666535 0.10312946 0.37861896
0.35292667 0.32319194 0.22854713 -0.78532517 0.69040936 0.113712735 0.5359753 0.17347792
0.4894206 -0.10442134 1.0376099 0.124382116 0.2876395 0.44897127 0.40189686 -1.6300046
-0.044387273 0.46018603 1.2785622 0.41121364 -0.368229 0.6684282 0.12429814 -1.2659857
-0.06083996 0.17059152 0.031873487 -0.40243995 0.4451957 0.53109187 0.41392016 -0.06573316
-1.2419075 0.7638253 0.037197966 0.03974118 0.44177896 -0.76962185 0.9079222 -0.1706013
0.13579218 0.24550594 -0.1922391 -0.68394506 0.12168973 0.41547614 -0.16471046 0.07849712

fc2.bias f4 [64]
00000000: dad3 ae3b 1c3a 6f3b 3062 42be ec6c 883d
00000010: 19a8 273e 8c83 a3bd 1481 1c3f 4822 b53d
00000020: 160e f13e 5f4d cfbd 290c 17bd 3a33 01be
00000030: 9cc7 e2be a005 f5bd a0bd 21be 1266 613e
00000040: 3158 40be 96b0 563e bfa9 21be c2d9 b0bc
00000050: b8a2 313d c61e d93e effa 18be d355 993e
00000060: df33 fabd c560 a63e f723 d83b 51a8 a43e
00000070: b72e 34bd 4b2a 4f3d 91ea 323f b6e0 6f3f
00000080: e449 e1bd 7e2f 403b 6e68 08be a51e f03e
00000090: 52c3 ec3c 6db0 89bc fbb0 1e3f 7086 c4bd
000000a0: d8e1 80be 323c 12be c257 39bd 9580 0b3e
000000b0: 37b0 a2bd 64e4 ac3d dc18 cd3e 784b 413e
000000c0: 7e88 8cbd 082b 41be f628 a7bd 4d03 a83c
000000d0: 8613 343f 2f76 e13e 8ed6 0abe 160d a9be
000000e0: 1cce e23d 4249 763e 6c03 3e3e 9678 b63c
000000f0: 0305 75be 584e 4cbe 5ad1 4abd 9086 72bd
0.0053353133 0.0036503142 -0.18982768 0.066614 0.16372718 -0.07984075 0.6113446 0.08844429
0.4708106 -0.10122179 -0.03687683 -0.12617198 -0.44292915 -0.119639635 -0.15794992 0.22011593
-0.18783642 0.209658 -0.15787409 -0.02158821 0.04336807 0.4240629 -0.14939474 0.2994829
-0.12216925 0.32495704 0.006596084 0.32159665 -0.043989863 0.050577443 0.6988917 0.93702257
-0.11000422 0.0029325183 -0.13321087 0.4689838 0.02890173 -0.01680776 0.619888 -0.095959544
-0.25172305 -0.14280775 -0.045249708 0.13623269 -0.079437666 0.084419996 0.4005803 0.18876445
-0.06861971 -0.18864071 -0.081621096 0.020509386 0.7034229 0.4403548 -0.13558409 -0.33017796
0.110744685 0.24051383 0.18555993 0.022274297 -0.23927693 -0.19951761 -0.04951606 -0.05921036

fc3.weight f4 [4, 64]
00000000: 793d c13d 007b a1be 0254 e0be a981 79be
00000010: 1da9 0bbf c25b d7be 8ae7 1c40 f77d 48bf
00000020: 050b c13f 4c0a 1d3d 6c44 febe e786 77bd
00000030: 2ed8 6bbf 9758 acbe 70b3 49bf cd2f 2440
00000040: cc61 8fbf 7c86 6ebf 6375 39bf b62d 8bbe
00000050: 75cb 00bf 5756 6f3f 524d 6a3e cc8e 93bf
00000060: e60f 6abe becd 5f3f 6517 ae3f 55a9 52c0
00000070: 64e1 c8be 76a7 00bf e87b dfbc 6411 923f
00000080: 5177 e8be d13b 6ebe 97e5 c1be 1bb2 5d3d
00000090: 3a83 efbe 8d74 53be 7ea4 8f3f 6efc 1bbf
000000a0: 860e 16bf 4045 9abe 6430 acbe fcd2 e33f
000000b0: 1180 07bf 213d 8abc a4a0 0bbf 4344 4abf
000000c0: 3d5f dcbe 656c eebe d436 b6be 188b 61bf
000000d0: a3a4 0640 c99a 403d 83e2 5cbe f4b5 e03f
000000e0: a7ec c3bf a18e 8cbf 075d 1abf be8b bebe
000000f0: e539 1cbf c8fc e9be ac59 b63d 261c bbbe
00000100: 9c29 2f3f 0632 42bf 55e1 49be cde0 efbe
00000110: 7077 75bf e52f 9bbe 609d 2440 7d40 05bf
00000120: d511 da3f 3ed9 a3bd cccf 0bbf fc9b 35bd
00000130: ce9e 55bd 982c d7be 9067 7ebe 18ad 0940
00000140: 66e9 01bf 8cd1 d6be fcce 17bf 80bb ffbe
00000150: 9410 96be 170d 633f 32c2 29bf 9728 90bf
00000160: c55d 05bf 51de 2d3f 7de0 be3f ba6b 42c0
00000170: 098e 0fbf e4f3 bdbe 9af7 57bf 7764 753f
00000180: 4881 cabe 291e 2abf 07af acbe 6675 2f3f
00000190: 5ffb 1bbf a7af 12bf 37d0 8c3f dd56 a53e
000001a0: cb3b d2be e31e 33bf 52c1 2ebf b8f3 de3f
000001b0: 7949 fcbe 601a 2f3c de33 72bf 6aeb e0be
000001c0: 546c cabe 08ba 39bf e3ce cabe 1aa1 37bf
000001d0: 4e79 0940 7438 a73d a7c3 e1be 8ff0 c63f
000001e0: dd5c 10bf f97d 27bf a7c0 3fbf ec4a 08bf
000001f0: 7361 bfbe 5d05 8cbe 574c e23d 2a0c d5be
00000200: d65a a4bf f2cc 8abf dbf1 00bf 0562 65be
00000210: aedd 4fbd c58a 013d 25f0 2140 6282 6a3e
00000220: 45d2 0f40 facd 703d 4fa4 44be c08a 0a3d
00000230: 54dd 96bd 7ba6 03bf 02d0 77bf 428c ec3f
00000240: cdc9 92bf 90e4 8fbf d082 00bf 17f9 06bf
00000250: 3daf 20be 496a 7f3f 30d0 8abf 0d77 e23e
00000260: a23d d6be 2cee 163f 7f5b 18bd b8d6 d3bf
00000270: ab26 f3be ce34 6dbe ec52 37bf 9617 823f
00000280: 842e d5bd 97c8 00bf 5cd7 b0be 909a 3bbf
00000290: 1514 f9bd 0d0b febe 13cd 1540 30c8 b2be
000002a0: aa18 91be e615 0dbf 14b8 29bf 7240 1f40
000002b0: e6c2 f6bd 2879 d6bc 1b37 a9bf 9bcb 65bf
000002c0: ff78 b6be 1421 25bf e6d3 0abf 48e3 5bbf
000002d0: 8d45 7f3f 46df b8bf 55c6 afbe 519c f53f
000002e0: 0bc7 f4be d84a 2cbf dcc8 91bd f69f 75be
000002f0: 090f 4bbb c65c d6be 77aa 0f3d 0b8f fbbe
00000300: 7793 cf3e 0b08 e73d 3260 95be 3cde 46bf
00000310: 4cc6 60bf 1464 16bf 81b0 1f40 e6f0 f4be
00000320: 58c0 ec3f f0bc 33bd 0c6d 0bbf 8012 23bb
00000330: 3b9a 85bf 98f9 eabe 8542 55be a5db 0a40
00000340: 35c2 51bf 7a67 9bbc 5349 05be a49b e2be
00000350: abbb 3fbf c857 923f 3092 08be b4cb a8be
00000360: 4227 e7be 706d 7a3f 4e8a 853f a36b 32c0
00000370: fd94 0ebf 9de8 37bf d3d4 b23e 6b14 f93e
00000380: f497 f9be f878 9ebe 02b5 1bbf 369b 9bbe
00000390: 1f69 8bbe bea4 f3be 0478 6a3f 5141 cdbe
000003a0: e201 4dbe 361c a8be 94f1 3abe b750 e53f
000003b0: 4751 93be 37ed d2bd d7c9 a4bf 2694 8ebe
000003c0: 4e9f 00bf 388f a5bd 36b1 19bf 074f 19bf
000003d0: d869 0e40 b89a 94bd 8e08 2ebf bc97 0d40
000003e0: da2d f1be dccc 61bf e9c3 b7be 1d16 2fbf
000003f0: 0946 c6be c9bb 0cbf dc33 f83c 8b13 bcbe
0.09435553 -0.31539154 -0.43814093 -0.24365868 -0.5455492 -0.42062193 2.451632 -0.7831721
1.5081488 0.038339898 -0.49661577 -0.060431387 -0.9212674 -0.3366134 -0.78789425 2.5654175
-1.120172 -0.93173957 -0.7244474 -0.27183312 -0.5031045 0.9349112 0.22881058 -1.1527953
-0.22857627 0.8742331 1.360089 -3.2915852 -0.3923446 -0.50255525 -0.027280763 1.1411557
-0.4540353 -0.23265006 -0.37870476 0.054124933 -0.46779805 -0.2064993 1.1222074 -0.6093205
-0.5861591 -0.3013096 -0.3363067 1.7798762 -0.5292979 -0.016874852 -0.54541993 -0.7901041
-0.4304141 -0.46567073 -0.35588706 -0.88102865 2.1037986 0.047022615 -0.21570782 1.7555528
-1.5306596 -1.0981027 -0.602982 -0.3721599 -0.6102584 -0.4570067 0.08903822 -0.36544913
0.68422866 -0.7585758 -0.19714864 -0.46851197 -0.9588537 -0.30309978 2.5721054 -0.52051526
1.7036692 -0.0800042 -0.5461395 -0.04433821 -0.0521534 -0.4202621 -0.24844193 2.1511898
-0.5074676 -0.41956747 -0.5930021 -0.4994774 -0.29309523 0.8869185 -0.66311944 -1.1262387
-0.52096206 0.6791735 1.4912258 -3.037825 -0.56076103 -0.37100136 -0.84362185 0.9585642
-0.3955176 -0.6645227 -0.33727285 0.6853851 -0.60930437 -0.57299274 1.1001042 0.32292834
-0.41061243 -0.69969004 -0.68263733 1.7418127 -0.49274805 0.010687441 -0.94610393 -0.43929607
-0.39535773 -0.72549486 -0.39610967 -0.71730196 2.1480289 0.081650645 -0.44094583 1.5542163
-0.563917 -0.65426594 -0.7490334 -0.5323932 -0.37379035 -0.27347842 0.11049717 -0.41610843
-1.2840221 -1.0843794 -0.5036904 -0.22400673 -0.05074852 0.03162648 2.5302823 0.229013
2.2472088 0.058790185 -0.19203304 0.03382373 -0.07366434 -0.51425904 -0.9680177 1.8480303
-1.1467835 -1.1241627 -0.50199604 -0.5272383 -0.15691848 0.99771553 -1.0844784 0.44231454
-0.41843897 0.5895717 -0.037196632 -1.6549902 -0.4749044 -0.23164675 -0.71610904 1.0163448
-0.10409263 -0.50306076 -0.34539306 -0.7328272 -0.121620335 -0.49617806 2.3406417 -0.34918356
-0.2833913 -0.5511154 -0.66296506 2.4883084 -0.12048893 -0.026180819 -1.3219942 -0.897638
-0.35639188 -0.645036 -0.5422958 -0.8589368 0.997155 -1.4443138 -0.34331003 1.9188329
-0.47808108 -0.673017 -0.07118389 -0.23986802 -0.0030984303 -0.41867656 0.035074677 -0.4913257
0.40542194 0.11280831 -0.29174954 -0.7768285 -0.87802577 -0.5874646 2.495148 -0.4784004
1.8496199 -0.043881357 -0.5446327 -0.0024882853 -1.0437692 -0.4589355 -0.20826156 2.169656
-0.8193696 -0.01897024 -0.13016252 -0.4425937 -0.74895734 1.1433039 -0.13337016 -0.32967913
-0.4514714 0.9782324 1.0432832 -2.7878196 -0.5569609 -0.71839315 0.34927997 0.4864839
-0.48748744 -0.30951667 -0.6082307 -0.30391854 -0.2722864 -0.47586626 0.9158938 -0.40088895
-0.2002025 -0.32834023 -0.18256217 1.7915257 -0.28772947 -0.102991514 -1.2874097 -0.27847403
-0.5024308 -0.080839574 -0.6003603 -0.5988621 2.2252102 -0.07256073 -0.67981803 2.2123861
-0.47105294 -0.88203216 -0.35891655 -0.6839312 -0.38725308 -0.5497404 0.030298166 -0.3673366

fc3.bias f4 [4]
00000000: 94d1 573d 8637 13bc f475 f23e aab7 a03e
0.052690104 -0.008985406 0.47355616 0.31390125
